(33, 3695, 1)
(33, 7)
Model: "sequential"
_________________________________________________________________
 Layer (type)                Output Shape              Param #
=================================================================
 conv1d (Conv1D)             (None, 3694, 256)         768
 conv1d_1 (Conv1D)           (None, 3692, 256)         196864
 max_pooling1d (MaxPooling1D  (None, 3691, 256)        0
 )
 flatten (Flatten)           (None, 944896)            0
 dense (Dense)               (None, 300)               283469100
 dense_1 (Dense)             (None, 7)                 2107
=================================================================
Total params: 283,668,839
Trainable params: 283,668,839
Non-trainable params: 0
_________________________________________________________________
None
Epoch 1/1000
1/1 [==============================] - 6s 6s/step - loss: 9.1468 - accuracy: 0.1818 - val_loss: 5.3592 - val_accuracy: 0.4286
Epoch 2/1000
1/1 [==============================] - 4s 4s/step - loss: 6.6945 - accuracy: 0.3333 - val_loss: 9.0544 - val_accuracy: 0.5000
…
