(3375, 3695, 1)
(3375, 27)
Model: "sequential"
_________________________________________________________________
 Layer (type)                Output Shape              Param #
=================================================================
 conv1d (Conv1D)             (None, 3694, 64)          192
 dense (Dense)               (None, 3694, 90)          5850
 max_pooling1d (MaxPooling1D  (None, 1847, 90)         0
 )
 flatten (Flatten)           (None, 166230)            0
 dense_1 (Dense)             (None, 27)                4488237
=================================================================
Total params: 4,494,279
Trainable params: 4,494,279
Non-trainable params: 0
_________________________________________________________________
None
Epoch 1/10








53/53 [==============================] - 21s 383ms/step - loss: 577.1425 - accuracy: 0.0353 - val_loss: 226.8507 - val_accuracy: 0.0377
Epoch 2/10








53/53 [==============================] - 20s 378ms/step - loss: 168.3484 - accuracy: 0.0575 - val_loss: 149.8795 - val_accuracy: 0.1225
…
