(55, 3695, 1)
(55, 11)
Model: "sequential"
_________________________________________________________________
 Layer (type)                Output Shape              Param #
=================================================================
 conv1d (Conv1D)             (None, 3694, 256)         768
 conv1d_1 (Conv1D)           (None, 3692, 256)         196864
 max_pooling1d (MaxPooling1D  (None, 3691, 256)        0
 )
 flatten (Flatten)           (None, 944896)            0
 dense (Dense)               (None, 300)               283469100
 dense_1 (Dense)             (None, 11)                3311
=================================================================
Total params: 283,670,043
Trainable params: 283,670,043
Non-trainable params: 0
_________________________________________________________________
None
Epoch 1/1000
1/1 [==============================] - 6s 6s/step - loss: 11.6640 - accuracy: 0.0727 - val_loss: 7.5799 - val_accuracy: 0.1304
Epoch 2/1000
1/1 [==============================] - 5s 5s/step - loss: 7.4412 - accuracy: 0.2182 - val_loss: 5.9814 - val_accuracy: 0.1304
…
